…
model.add(Dense(1024, activation='relu'))
model.add(Dense(1024, activation='relu'))
model.add(Dense(num_class, activation='softmax'))
 
# # Show a summary of the model. Check the number of trainable parameters    
print(model.summary())
 As you can see below, the summary of our network model. From an input from VGG16 Layers, then we add 2 Fully Connected Layer which will extract 1024 features and an output layer that will compute the 8 classes with the softmax activation. Layer (type)                 Output Shape              Param #   
=================================================================
vgg16 (Model)                (None, 7, 7, 512)         14714688  
_________________________________________________________________
flatten_1 (Flatten)          (None, 25088)             0         
_________________________________________________________________
dense_1 (Dense)              (None, 1024)              25691136  
_________________________________________________________________
dense_2 (Dense)              (None, 1024)              1049600   
_________________________________________________________________
dense_3 (Dense)              (None, 8)                 8200      
=================================================================
Total params: 41,463,624
Trainable params: 26,748,936
Non-trainable params: 14,714,688
 Training # # Compile the model
from keras.optimizers import SGD

model.compile(loss='categorical_crossentropy',
          optimizer=SGD(lr=1e-3),
          metrics=['accuracy'])

# # Start the training process
# model.fit(x_train, y_train, validation_split=0.30, batch_size=32, epochs=50, verbose=2)
…
ition.” BMVC (2015). The framework uses VGG16 as the network architecture. You can download the VGGFace from github from keras.applications.vgg16 import VGG16
from keras_vggface.vggface import VGGFace

face_model = VGGFace(model='vgg16', 
                weights='vggface',
                input_shape=(224,224,3)) 
face_model.summary()
 As you can see the network summary _________________________________________________________________
Layer (type)                 Output Shape              Param #   
=================================================================
input_1 (InputLayer)         (None, 224, 224, 3)       0         
_________________________________________________________________
conv1_1 (Conv2D)             (None, 224, 224, 64)      1792      
_________________________________________________________________
conv1_2 (Conv2D)             (None, 224, 224, 64)      36928     
_________________________________________________________________
pool1 (MaxPooling2D)         (None, 112, 112, 64)      0         
_________________________________________________________________
conv2_1 (Conv2D)             (None, 112, 112, 128)     73856     
_________________________________________________________________
conv2_2 (Conv2D)             (None, 112, 112, 128)     147584    
_________________________________________________________________
pool2 (MaxPooling2D)         (None, 56, 56, 128)       0         
_________________________________________________________________
conv3_1 (Conv2D)             (None, 56, 56, 256)       295168    
_________________________________________________________________
conv3_2 (Conv2D)             (None, 56, 56, 256)       590080    
_________________________________________________________________
conv3_3 (Conv2D)             (None, 56, 56, 256)       590080    
_________________________________________________________________
pool3 (MaxPooling2D)         (None, 28, 28, 256)       0         
_________________________________________________________________
conv4_1 (Conv2D)             (None, 28, 28, 512)       1180160   
_________________________________________________________________
conv4_2 (Conv2D)             (None, 28, 28, 512)       2359808   
_________________________________________________________________
conv4_3 (Conv2D)             (None, 28, 28, 512)       2359808   
_________________________________________________________________
pool4 (MaxPooling2D)         (None, 14, 14, 512)       0         
_________________________________________________________________
conv5_1 (Conv2D)             (None, 14, 14, 512)       2359808   
_________________________________________________________________
conv5_2 (Conv2D)             (None, 14, 14, 512)       2359808   
_________________________________________________________________
conv5_3 (Conv2D)             (None, 14, 14, 512)       2359808   
_________________________________________________________________
pool5 (MaxPooling2D)         (None, 7, 7, 512)         0         
_________________________________________________________________
flatten (Flatten)            (None, 25088)             0         
_________________________________________________________________
fc6 (Dense)                  (None, 4096)              102764544 
_________________________________________________________________
fc6/relu (Activation)        (None, 4096)              0         
_________________________________________________________________
fc7 (Dense)                  (None, 4096)              16781312  
_________________________________________________________________
fc7/relu (Activation)        (None, 4096)              0         
_________________________________________________________________
fc8 (Dense)                  (None, 2622)              10742334  
_________________________________________________________________
fc8/softmax (Activation)     (None, 2622)              0         
=================================================================
Total params: 145,002,878
Trainable params: 145,002,878
Non-trainable params: 0
_________________________________________________________________
Traceback (most recent call last):
 we will do a Transfer Learning + Fine Tuning to make the training quicker with small datasets. First, we will freeze the base layers so that the layers are not trainable. for layer in face_model.layers:
…
from keras.layers import Input, Convolution2D, ZeroPadding2D, MaxPooling2D, Flatten, Dense, Dropout, Activation

person_count = 5

last_layer = face_model.get_layer('pool5').output

x = Flatten(name='flatten')(last_layer)
x = Dense(1024, activation='relu', name='fc6')(x)
x = Dense(1024, activation='relu', name='fc7')(x)
out = Dense(person_count, activation='softmax', name='fc8')(x)

custom_face = Model(face_model.input, out)
 Let’s see our network summary Layer (type)                 Output Shape              Param #
=================================================================
input_1 (InputLayer)         (None, 224, 224, 3)       0
_________________________________________________________________
conv1_1 (Conv2D)             (None, 224, 224, 64)      1792
_________________________________________________________________
conv1_2 (Conv2D)             (None, 224, 224, 64)      36928
_________________________________________________________________
pool1 (MaxPooling2D)         (None, 112, 112, 64)      0
_________________________________________________________________
conv2_1 (Conv2D)             (None, 112, 112, 128)     73856
_________________________________________________________________
conv2_2 (Conv2D)             (None, 112, 112, 128)     147584
_________________________________________________________________
pool2 (MaxPooling2D)         (None, 56, 56, 128)       0
_________________________________________________________________
conv3_1 (Conv2D)             (None, 56, 56, 256)       295168
_________________________________________________________________
conv3_2 (Conv2D)             (None, 56, 56, 256)       590080
_________________________________________________________________
conv3_3 (Conv2D)             (None, 56, 56, 256)       590080
_________________________________________________________________
pool3 (MaxPooling2D)         (None, 28, 28, 256)       0
_________________________________________________________________
conv4_1 (Conv2D)             (None, 28, 28, 512)       1180160
_________________________________________________________________
conv4_2 (Conv2D)             (None, 28, 28, 512)       2359808
_________________________________________________________________
conv4_3 (Conv2D)             (None, 28, 28, 512)       2359808
_________________________________________________________________
pool4 (MaxPooling2D)         (None, 14, 14, 512)       0
_________________________________________________________________
conv5_1 (Conv2D)             (None, 14, 14, 512)       2359808
_________________________________________________________________
conv5_2 (Conv2D)             (None, 14, 14, 512)       2359808
_________________________________________________________________
conv5_3 (Conv2D)             (None, 14, 14, 512)       2359808
_________________________________________________________________
pool5 (MaxPooling2D)         (None, 7, 7, 512)         0
_________________________________________________________________
flatten (Flatten)            (None, 25088)             0
_________________________________________________________________
fc6 (Dense)                  (None, 1024)              25691136
_________________________________________________________________
fc7 (Dense)                  (None, 1024)              1049600
_________________________________________________________________
fc8 (Dense)                  (None, 5)                 5125
=================================================================
Total params: 41,460,549
Trainable params: 26,745,861
Non-trainable params: 14,714,688
 As you can see above, after the pool5 layer, it will be flattened into a single feature vector that will be used by the dense layer for the final recognition. Preparing our Faces Now let’s prepare our faces. I made a directory consist of 5 famou
…
